Model: "custom_yolo"
__________________________________________________________________________________________________
Layer (type)                    Output Shape         Param #     Connected to
==================================================================================================
input_1 (InputLayer)            [(None, 416, 416, 3) 0
__________________________________________________________________________________________________
tf_op_layer_truediv (TensorFlow [(None, 416, 416, 3) 0           input_1[0][0]
__________________________________________________________________________________________________
tf_op_layer_sub (TensorFlowOpLa [(None, 416, 416, 3) 0           tf_op_layer_truediv[0][0]
__________________________________________________________________________________________________
down_stack (Functional)         [(None, 52, 52, 192) 873984      tf_op_layer_sub[0][0]
__________________________________________________________________________________________________
conv2d_transpose (Conv2DTranspo (None, 26, 26, 384)  3318144     down_stack[0][2]
__________________________________________________________________________________________________
batch_normalization (BatchNorma (None, 26, 26, 384)  1536        conv2d_transpose[0][0]
__________________________________________________________________________________________________
re_lu (ReLU)                    (None, 26, 26, 384)  0           batch_normalization[0][0]
__________________________________________________________________________________________________
concatenate (Concatenate)       (None, 26, 26, 768)  0           re_lu[0][0]
                                                                 down_stack[0][1]
__________________________________________________________________________________________________
conv2d_transpose_1 (Conv2DTrans (None, 52, 52, 192)  1327296     concatenate[0][0]
__________________________________________________________________________________________________
batch_normalization_1 (BatchNor (None, 52, 52, 192)  768         conv2d_transpose_1[0][0]
__________________________________________________________________________________________________
re_lu_1 (ReLU)                  (None, 52, 52, 192)  0           batch_normalization_1[0][0]
__________________________________________________________________________________________________
concatenate_1 (Concatenate)     (None, 52, 52, 384)  0           re_lu_1[0][0]
                                                                 down_stack[0][0]
__________________________________________________________________________________________________
dropout (Dropout)               (None, 52, 52, 384)  0           concatenate_1[0][0]
__________________________________________________________________________________________________
conv2d (Conv2D)                 (None, 26, 26, 192)  663744      dropout[0][0]
__________________________________________________________________________________________________
batch_normalization_2 (BatchNor (None, 26, 26, 192)  768         conv2d[0][0]
__________________________________________________________________________________________________
re_lu_2 (ReLU)                  (None, 26, 26, 192)  0           batch_normalization_2[0][0]
__________________________________________________________________________________________________
conv2d_1 (Conv2D)               (None, 26, 26, 64)   110656      re_lu_2[0][0]
__________________________________________________________________________________________________
batch_normalization_3 (BatchNor (None, 26, 26, 64)   256         conv2d_1[0][0]
__________________________________________________________________________________________________
re_lu_3 (ReLU)                  (None, 26, 26, 64)   0           batch_normalization_3[0][0]
__________________________________________________________________________________________________
conv2d_2 (Conv2D)               (None, 26, 26, 64)   36928       re_lu_3[0][0]
__________________________________________________________________________________________________
batch_normalization_4 (BatchNor (None, 26, 26, 64)   256         conv2d_2[0][0]
__________________________________________________________________________________________________
re_lu_4 (ReLU)                  (None, 26, 26, 64)   0           batch_normalization_4[0][0]
__________________________________________________________________________________________________
conv2d_3 (Conv2D)               (None, 13, 13, 24)   13848       re_lu_4[0][0]
__________________________________________________________________________________________________
final_output (Reshape)          (None, 13, 13, 3, 8) 0           conv2d_3[0][0]
__________________________________________________________________________________________________
input_2 (InputLayer)            [(None, 1, 1, 1, 111 0
__________________________________________________________________________________________________
hack_layer (Lambda)             (None, 13, 13, 3, 8) 0           final_output[0][0]
                                                                 input_2[0][0]
==================================================================================================
Total params: 6,348,184
Trainable params: 5,472,408
Non-trainable params: 875,776
__________________________________________________________________________________________________

Epoch 1: Learning rate is 0.0004.
…
1934/1934 [==============================] - ETA: 0s - batch: 966.5000 - size: 15.9974 - loss: 29.2054
Epoch 00003: val_loss improved from 31.27766 to 31.03371, saving model to weights\model.h5
1934/1934 [==============================] - 896s 463ms/step - batch: 966.5000 - size: 15.9974 - loss: 29.2054 - val_loss: 31.0337

II

Model: "custom_yolo"
__________________________________________________________________________________________________
Layer (type)                    Output Shape         Param #     Connected to
==================================================================================================
input_1 (InputLayer)            [(None, 416, 416, 3) 0
__________________________________________________________________________________________________
tf_op_layer_truediv (TensorFlow [(None, 416, 416, 3) 0           input_1[0][0]
__________________________________________________________________________________________________
tf_op_layer_sub (TensorFlowOpLa [(None, 416, 416, 3) 0           tf_op_layer_truediv[0][0]
__________________________________________________________________________________________________
mobilenetv2_1.00_224 (Functiona (None, 13, 13, 1280) 2257984     tf_op_layer_sub[0][0]
__________________________________________________________________________________________________
conv2d (Conv2D)                 (None, 13, 13, 24)   276504      mobilenetv2_1.00_224[0][0]
__________________________________________________________________________________________________
final_output (Reshape)          (None, 13, 13, 3, 8) 0           conv2d[0][0]
__________________________________________________________________________________________________
input_2 (InputLayer)            [(None, 1, 1, 1, 111 0
__________________________________________________________________________________________________
hack_layer (Lambda)             (None, 13, 13, 3, 8) 0           final_output[0][0]
                                                                 input_2[0][0]
==================================================================================================
Total params: 2,534,488
Trainable params: 276,504
Non-trainable params: 2,257,984
__________________________________________________________________________________________________

Epoch 1: Learning rate is 6e-05.
…
1934/1934 [==============================] - ETA: 0s - batch: 966.5000 - size: 15.9974 - loss: 33.6047
Epoch 00006: val_loss improved from 63.26646 to 56.21117, saving model to weights\model_v3.h5
1934/1934 [==============================] - 403s 208ms/step - batch: 966.5000 - size: 15.9974 - loss: 33.6047 - val_loss: 56.2112

Model: "custom_yolo"
__________________________________________________________________________________________________
Layer (type)                    Output Shape         Param #     Connected to
==================================================================================================
input_1 (InputLayer)            [(None, 416, 416, 3) 0
__________________________________________________________________________________________________
tf_op_layer_truediv (TensorFlow [(None, 416, 416, 3) 0           input_1[0][0]
__________________________________________________________________________________________________
tf_op_layer_sub (TensorFlowOpLa [(None, 416, 416, 3) 0           tf_op_layer_truediv[0][0]
__________________________________________________________________________________________________
down_stack (Functional)         [(None, 52, 52, 192) 274880      tf_op_layer_sub[0][0]
__________________________________________________________________________________________________
conv2d_transpose (Conv2DTranspo (None, 52, 52, 192)  663744      down_stack[0][1]
__________________________________________________________________________________________________
re_lu (ReLU)                    (None, 52, 52, 192)  0           conv2d_transpose[0][0]
__________________________________________________________________________________________________
batch_normalization (BatchNorma (None, 52, 52, 192)  768         re_lu[0][0]
__________________________________________________________________________________________________
concatenate (Concatenate)       (None, 52, 52, 384)  0           batch_normalization[0][0]
                                                                 down_stack[0][0]
__________________________________________________________________________________________________
dropout (Dropout)               (None, 52, 52, 384)  0           concatenate[0][0]
__________________________________________________________________________________________________
conv2d (Conv2D)                 (None, 26, 26, 192)  663744      dropout[0][0]
__________________________________________________________________________________________________
re_lu_1 (ReLU)                  (None, 26, 26, 192)  0           conv2d[0][0]
__________________________________________________________________________________________________
batch_normalization_1 (BatchNor (None, 26, 26, 192)  768         re_lu_1[0][0]
__________________________________________________________________________________________________
conv2d_1 (Conv2D)               (None, 26, 26, 192)  331968      batch_normalization_1[0][0]
__________________________________________________________________________________________________
re_lu_2 (ReLU)                  (None, 26, 26, 192)  0           conv2d_1[0][0]
__________________________________________________________________________________________________
batch_normalization_2 (BatchNor (None, 26, 26, 192)  768         re_lu_2[0][0]
__________________________________________________________________________________________________
conv2d_2 (Conv2D)               (None, 26, 26, 128)  221312      batch_normalization_2[0][0]
__________________________________________________________________________________________________
re_lu_3 (ReLU)                  (None, 26, 26, 128)  0           conv2d_2[0][0]
__________________________________________________________________________________________________
batch_normalization_3 (BatchNor (None, 26, 26, 128)  512         re_lu_3[0][0]
__________________________________________________________________________________________________
conv2d_3 (Conv2D)               (None, 26, 26, 128)  147584      batch_normalization_3[0][0]
__________________________________________________________________________________________________
re_lu_4 (ReLU)                  (None, 26, 26, 128)  0           conv2d_3[0][0]
__________________________________________________________________________________________________
batch_normalization_4 (BatchNor (None, 26, 26, 128)  512         re_lu_4[0][0]
__________________________________________________________________________________________________
conv2d_4 (Conv2D)               (None, 13, 13, 64)   73792       batch_normalization_4[0][0]
__________________________________________________________________________________________________
re_lu_5 (ReLU)                  (None, 13, 13, 64)   0           conv2d_4[0][0]
__________________________________________________________________________________________________
batch_normalization_5 (BatchNor (None, 13, 13, 64)   256         re_lu_5[0][0]
__________________________________________________________________________________________________
conv2d_5 (Conv2D)               (None, 13, 13, 64)   36928       batch_normalization_5[0][0]
__________________________________________________________________________________________________
re_lu_6 (ReLU)                  (None, 13, 13, 64)   0           conv2d_5[0][0]
__________________________________________________________________________________________________
batch_normalization_6 (BatchNor (None, 13, 13, 64)   256         re_lu_6[0][0]
__________________________________________________________________________________________________
conv2d_6 (Conv2D)               (None, 13, 13, 32)   18464       batch_normalization_6[0][0]
__________________________________________________________________________________________________
re_lu_7 (ReLU)                  (None, 13, 13, 32)   0           conv2d_6[0][0]
__________________________________________________________________________________________________
batch_normalization_7 (BatchNor (None, 13, 13, 32)   128         re_lu_7[0][0]
__________________________________________________________________________________________________
conv2d_7 (Conv2D)               (None, 13, 13, 32)   9248        batch_normalization_7[0][0]
__________________________________________________________________________________________________
re_lu_8 (ReLU)                  (None, 13, 13, 32)   0           conv2d_7[0][0]
__________________________________________________________________________________________________
batch_normalization_8 (BatchNor (None, 13, 13, 32)   128         re_lu_8[0][0]
__________________________________________________________________________________________________
conv2d_8 (Conv2D)               (None, 13, 13, 24)   6936        batch_normalization_8[0][0]
__________________________________________________________________________________________________
final_output (Reshape)          (None, 13, 13, 3, 8) 0           conv2d_8[0][0]
__________________________________________________________________________________________________
input_2 (InputLayer)            [(None, 1, 1, 1, 111 0
__________________________________________________________________________________________________
hack_layer (Lambda)             (None, 13, 13, 3, 8) 0           final_output[0][0]
                                                                 input_2[0][0]
==================================================================================================
Total params: 2,452,696
Trainable params: 2,175,768
Non-trainable params: 276,928
__________________________________________________________________________________________________

Epoch 1: Learning rate is 0.0002.
…
1934/1934 [==============================] - ETA: 0s - batch: 966.5000 - size: 15.9974 - loss: 10.6694
Epoch 00006: val_loss improved from 11.79511 to 8.47740, saving model to weights\model_v3.h5
1934/1934 [==============================] - 748s 387ms/step - batch: 966.5000 - size: 15.9974 - loss: 10.6694 - val_loss: 8.4774



Model: "custom_yolo"
__________________________________________________________________________________________________
Layer (type)                    Output Shape         Param #     Connected to
==================================================================================================
input_1 (InputLayer)            [(None, 416, 416, 3) 0
__________________________________________________________________________________________________
tf_op_layer_truediv (TensorFlow [(None, 416, 416, 3) 0           input_1[0][0]
__________________________________________________________________________________________________
tf_op_layer_sub (TensorFlowOpLa [(None, 416, 416, 3) 0           tf_op_layer_truediv[0][0]
__________________________________________________________________________________________________
down_stack (Functional)         [(None, 52, 52, 192) 873984      tf_op_layer_sub[0][0]
__________________________________________________________________________________________________
conv2d_transpose (Conv2DTranspo (None, 26, 26, 384)  3318144     down_stack[0][2]
__________________________________________________________________________________________________
leaky_re_lu (LeakyReLU)         (None, 26, 26, 384)  0           conv2d_transpose[0][0]
__________________________________________________________________________________________________
batch_normalization (BatchNorma (None, 26, 26, 384)  1536        leaky_re_lu[0][0]
__________________________________________________________________________________________________
concatenate (Concatenate)       (None, 26, 26, 768)  0           batch_normalization[0][0]
                                                                 down_stack[0][1]
__________________________________________________________________________________________________
conv2d_transpose_1 (Conv2DTrans (None, 52, 52, 192)  1327296     concatenate[0][0]
__________________________________________________________________________________________________
leaky_re_lu_1 (LeakyReLU)       (None, 52, 52, 192)  0           conv2d_transpose_1[0][0]
__________________________________________________________________________________________________
batch_normalization_1 (BatchNor (None, 52, 52, 192)  768         leaky_re_lu_1[0][0]
__________________________________________________________________________________________________
concatenate_1 (Concatenate)     (None, 52, 52, 384)  0           batch_normalization_1[0][0]
                                                                 down_stack[0][0]
__________________________________________________________________________________________________
dropout (Dropout)               (None, 52, 52, 384)  0           concatenate_1[0][0]
__________________________________________________________________________________________________
conv2d (Conv2D)                 (None, 26, 26, 192)  663744      dropout[0][0]
__________________________________________________________________________________________________
leaky_re_lu_2 (LeakyReLU)       (None, 26, 26, 192)  0           conv2d[0][0]
__________________________________________________________________________________________________
batch_normalization_2 (BatchNor (None, 26, 26, 192)  768         leaky_re_lu_2[0][0]
__________________________________________________________________________________________________
conv2d_1 (Conv2D)               (None, 26, 26, 192)  331968      batch_normalization_2[0][0]
__________________________________________________________________________________________________
leaky_re_lu_3 (LeakyReLU)       (None, 26, 26, 192)  0           conv2d_1[0][0]
__________________________________________________________________________________________________
batch_normalization_3 (BatchNor (None, 26, 26, 192)  768         leaky_re_lu_3[0][0]
__________________________________________________________________________________________________
conv2d_2 (Conv2D)               (None, 26, 26, 192)  331968      batch_normalization_3[0][0]
__________________________________________________________________________________________________
leaky_re_lu_4 (LeakyReLU)       (None, 26, 26, 192)  0           conv2d_2[0][0]
__________________________________________________________________________________________________
batch_normalization_4 (BatchNor (None, 26, 26, 192)  768         leaky_re_lu_4[0][0]
__________________________________________________________________________________________________
conv2d_3 (Conv2D)               (None, 26, 26, 192)  331968      batch_normalization_4[0][0]
__________________________________________________________________________________________________
leaky_re_lu_5 (LeakyReLU)       (None, 26, 26, 192)  0           conv2d_3[0][0]
__________________________________________________________________________________________________
batch_normalization_5 (BatchNor (None, 26, 26, 192)  768         leaky_re_lu_5[0][0]
__________________________________________________________________________________________________
conv2d_4 (Conv2D)               (None, 26, 26, 128)  221312      batch_normalization_5[0][0]
__________________________________________________________________________________________________
leaky_re_lu_6 (LeakyReLU)       (None, 26, 26, 128)  0           conv2d_4[0][0]
__________________________________________________________________________________________________
batch_normalization_6 (BatchNor (None, 26, 26, 128)  512         leaky_re_lu_6[0][0]
__________________________________________________________________________________________________
conv2d_5 (Conv2D)               (None, 26, 26, 128)  147584      batch_normalization_6[0][0]
__________________________________________________________________________________________________
leaky_re_lu_7 (LeakyReLU)       (None, 26, 26, 128)  0           conv2d_5[0][0]
__________________________________________________________________________________________________
batch_normalization_7 (BatchNor (None, 26, 26, 128)  512         leaky_re_lu_7[0][0]
__________________________________________________________________________________________________
conv2d_6 (Conv2D)               (None, 26, 26, 128)  147584      batch_normalization_7[0][0]
__________________________________________________________________________________________________
leaky_re_lu_8 (LeakyReLU)       (None, 26, 26, 128)  0           conv2d_6[0][0]
__________________________________________________________________________________________________
batch_normalization_8 (BatchNor (None, 26, 26, 128)  512         leaky_re_lu_8[0][0]
__________________________________________________________________________________________________
conv2d_7 (Conv2D)               (None, 26, 26, 128)  147584      batch_normalization_8[0][0]
__________________________________________________________________________________________________
leaky_re_lu_9 (LeakyReLU)       (None, 26, 26, 128)  0           conv2d_7[0][0]
__________________________________________________________________________________________________
batch_normalization_9 (BatchNor (None, 26, 26, 128)  512         leaky_re_lu_9[0][0]
__________________________________________________________________________________________________
conv2d_8 (Conv2D)               (None, 13, 13, 64)   73792       batch_normalization_9[0][0]
__________________________________________________________________________________________________
leaky_re_lu_10 (LeakyReLU)      (None, 13, 13, 64)   0           conv2d_8[0][0]
__________________________________________________________________________________________________
batch_normalization_10 (BatchNo (None, 13, 13, 64)   256         leaky_re_lu_10[0][0]
__________________________________________________________________________________________________
conv2d_9 (Conv2D)               (None, 13, 13, 64)   36928       batch_normalization_10[0][0]
__________________________________________________________________________________________________
leaky_re_lu_11 (LeakyReLU)      (None, 13, 13, 64)   0           conv2d_9[0][0]
__________________________________________________________________________________________________
batch_normalization_11 (BatchNo (None, 13, 13, 64)   256         leaky_re_lu_11[0][0]
__________________________________________________________________________________________________
conv2d_10 (Conv2D)              (None, 13, 13, 64)   36928       batch_normalization_11[0][0]
__________________________________________________________________________________________________
leaky_re_lu_12 (LeakyReLU)      (None, 13, 13, 64)   0           conv2d_10[0][0]
__________________________________________________________________________________________________
batch_normalization_12 (BatchNo (None, 13, 13, 64)   256         leaky_re_lu_12[0][0]
__________________________________________________________________________________________________
conv2d_11 (Conv2D)              (None, 13, 13, 64)   36928       batch_normalization_12[0][0]
__________________________________________________________________________________________________
leaky_re_lu_13 (LeakyReLU)      (None, 13, 13, 64)   0           conv2d_11[0][0]
__________________________________________________________________________________________________
batch_normalization_13 (BatchNo (None, 13, 13, 64)   256         leaky_re_lu_13[0][0]
__________________________________________________________________________________________________
conv2d_12 (Conv2D)              (None, 13, 13, 32)   18464       batch_normalization_13[0][0]
__________________________________________________________________________________________________
leaky_re_lu_14 (LeakyReLU)      (None, 13, 13, 32)   0           conv2d_12[0][0]
__________________________________________________________________________________________________
batch_normalization_14 (BatchNo (None, 13, 13, 32)   128         leaky_re_lu_14[0][0]
__________________________________________________________________________________________________
conv2d_13 (Conv2D)              (None, 13, 13, 32)   9248        batch_normalization_14[0][0]
__________________________________________________________________________________________________
leaky_re_lu_15 (LeakyReLU)      (None, 13, 13, 32)   0           conv2d_13[0][0]
__________________________________________________________________________________________________
batch_normalization_15 (BatchNo (None, 13, 13, 32)   128         leaky_re_lu_15[0][0]
__________________________________________________________________________________________________
conv2d_14 (Conv2D)              (None, 13, 13, 32)   9248        batch_normalization_15[0][0]
__________________________________________________________________________________________________
leaky_re_lu_16 (LeakyReLU)      (None, 13, 13, 32)   0           conv2d_14[0][0]
__________________________________________________________________________________________________
batch_normalization_16 (BatchNo (None, 13, 13, 32)   128         leaky_re_lu_16[0][0]
__________________________________________________________________________________________________
conv2d_15 (Conv2D)              (None, 13, 13, 32)   9248        batch_normalization_16[0][0]
__________________________________________________________________________________________________
leaky_re_lu_17 (LeakyReLU)      (None, 13, 13, 32)   0           conv2d_15[0][0]
__________________________________________________________________________________________________
batch_normalization_17 (BatchNo (None, 13, 13, 32)   128         leaky_re_lu_17[0][0]
__________________________________________________________________________________________________
conv2d_16 (Conv2D)              (None, 13, 13, 24)   6936        batch_normalization_17[0][0]
__________________________________________________________________________________________________
final_output (Reshape)          (None, 13, 13, 3, 8) 0           conv2d_16[0][0]
__________________________________________________________________________________________________
input_2 (InputLayer)            [(None, 1, 1, 1, 111 0
__________________________________________________________________________________________________
hack_layer (Lambda)             (None, 13, 13, 3, 8) 0           final_output[0][0]
                                                                 input_2[0][0]
==================================================================================================
Total params: 8,089,816
Trainable params: 7,211,352
Non-trainable params: 878,464
__________________________________________________________________________________________________

Epoch 1: Learning rate is 0.001.
…
