Model: "custom_yolo"
__________________________________________________________________________________________________
Layer (type)                    Output Shape         Param #     Connected to
==================================================================================================
input_1 (InputLayer)            [(None, 416, 416, 3) 0
__________________________________________________________________________________________________
tf_op_layer_truediv (TensorFlow [(None, 416, 416, 3) 0           input_1[0][0]
__________________________________________________________________________________________________
tf_op_layer_sub (TensorFlowOpLa [(None, 416, 416, 3) 0           tf_op_layer_truediv[0][0]
__________________________________________________________________________________________________
down_stack (Functional)         [(None, 104, 104, 24 1364864     tf_op_layer_sub[0][0]
__________________________________________________________________________________________________
conv2d_transpose (Conv2DTranspo (None, 26, 26, 96)   138336      down_stack[0][3]
__________________________________________________________________________________________________
batch_normalization (BatchNorma (None, 26, 26, 96)   384         conv2d_transpose[0][0]
__________________________________________________________________________________________________
re_lu (ReLU)                    (None, 26, 26, 96)   0           batch_normalization[0][0]
__________________________________________________________________________________________________
concatenate (Concatenate)       (None, 26, 26, 192)  0           re_lu[0][0]
                                                                 down_stack[0][2]
__________________________________________________________________________________________________
conv2d_transpose_1 (Conv2DTrans (None, 52, 52, 32)   55328       concatenate[0][0]
__________________________________________________________________________________________________
batch_normalization_1 (BatchNor (None, 52, 52, 32)   128         conv2d_transpose_1[0][0]
__________________________________________________________________________________________________
re_lu_1 (ReLU)                  (None, 52, 52, 32)   0           batch_normalization_1[0][0]
__________________________________________________________________________________________________
concatenate_1 (Concatenate)     (None, 52, 52, 64)   0           re_lu_1[0][0]
                                                                 down_stack[0][1]
__________________________________________________________________________________________________
conv2d_transpose_2 (Conv2DTrans (None, 104, 104, 24) 13848       concatenate_1[0][0]
__________________________________________________________________________________________________
batch_normalization_2 (BatchNor (None, 104, 104, 24) 96          conv2d_transpose_2[0][0]
__________________________________________________________________________________________________
re_lu_2 (ReLU)                  (None, 104, 104, 24) 0           batch_normalization_2[0][0]
__________________________________________________________________________________________________
concatenate_2 (Concatenate)     (None, 104, 104, 48) 0           re_lu_2[0][0]
                                                                 down_stack[0][0]
__________________________________________________________________________________________________
dropout (Dropout)               (None, 104, 104, 48) 0           concatenate_2[0][0]
__________________________________________________________________________________________________
conv2d (Conv2D)                 (None, 52, 52, 128)  55424       dropout[0][0]
__________________________________________________________________________________________________
batch_normalization_3 (BatchNor (None, 52, 52, 128)  512         conv2d[0][0]
__________________________________________________________________________________________________
re_lu_3 (ReLU)                  (None, 52, 52, 128)  0           batch_normalization_3[0][0]
__________________________________________________________________________________________________
conv2d_1 (Conv2D)               (None, 26, 26, 64)   73792       re_lu_3[0][0]
__________________________________________________________________________________________________
batch_normalization_4 (BatchNor (None, 26, 26, 64)   256         conv2d_1[0][0]
__________________________________________________________________________________________________
re_lu_4 (ReLU)                  (None, 26, 26, 64)   0           batch_normalization_4[0][0]
__________________________________________________________________________________________________
conv2d_2 (Conv2D)               (None, 13, 13, 24)   13848       re_lu_4[0][0]
__________________________________________________________________________________________________
batch_normalization_5 (BatchNor (None, 13, 13, 24)   96          conv2d_2[0][0]
__________________________________________________________________________________________________
final_output (Reshape)          (None, 13, 13, 3, 8) 0           batch_normalization_5[0][0]
__________________________________________________________________________________________________
input_2 (InputLayer)            [(None, 1, 1, 1, 112 0
__________________________________________________________________________________________________
hack_layer (Lambda)             (None, 13, 13, 3, 8) 0           final_output[0][0]
                                                                 input_2[0][0]
==================================================================================================
Total params: 1,716,912
Trainable params: 351,312
Non-trainable params: 1,365,600
__________________________________________________________________________________________________

Epoch 1: Learning rate is 0.0004.
…
